…
old comet version (0.1.68) detected. current: 1.0.29 please update your comet lib with command: `pip install --no-cache-dir --upgrade comet_ml`

Experiment is live on comet.ml https://www.comet.ml/sedab/general/2f6cec2ef66249c9b4e5042e137a02c8

Random Seed:  7127
Loading from: low
number of samples: 265926
Loading from: high
number of samples: 111737
Finished loading train dataset: 377663 samples
Loading from: low
number of samples: 61207
Loading from: high
number of samples: 22990
Finished loading valid dataset: 84197 samples
Class encoding:
{'high': 0, 'low': 1}
Initialization method not found, defaulting to normal
cancer_CNN (
  (conv1): BasicConv2d (
    (conv): Conv2d(3, 16, kernel_size=(5, 5), stride=(2, 2), padding=(1, 1))
    (bn): BatchNorm2d(16, eps=0.001, momentum=0.1, affine=True)
    (relu): ReLU ()
    (dropout): Dropout (p = 0.1)
  )
  (conv2): BasicConv2d (
    (conv): Conv2d(16, 32, kernel_size=(3, 3), stride=(1, 1))
    (bn): BatchNorm2d(32, eps=0.001, momentum=0.1, affine=True)
    (relu): ReLU ()
    (dropout): Dropout (p = 0.1)
  )
  (conv3): BasicConv2d (
    (conv): Conv2d(32, 64, kernel_size=(3, 3), stride=(1, 1), padding=(1, 1))
    (bn): BatchNorm2d(64, eps=0.001, momentum=0.1, affine=True)
    (relu): ReLU ()
    (dropout): Dropout (p = 0.1)
  )
  (conv4): BasicConv2d (
    (conv): Conv2d(64, 64, kernel_size=(3, 3), stride=(1, 1), padding=(1, 1))
    (bn): BatchNorm2d(64, eps=0.001, momentum=0.1, affine=True)
    (relu): ReLU ()
    (dropout): Dropout (p = 0.1)
  )
  (conv5): BasicConv2d (
    (conv): Conv2d(64, 128, kernel_size=(3, 3), stride=(1, 1), padding=(1, 1))
    (bn): BatchNorm2d(128, eps=0.001, momentum=0.1, affine=True)
    (relu): ReLU ()
    (dropout): Dropout (p = 0.1)
  )
  (conv6): BasicConv2d (
    (conv): Conv2d(128, 64, kernel_size=(3, 3), stride=(1, 1), padding=(1, 1))
    (bn): BatchNorm2d(64, eps=0.001, momentum=0.1, affine=True)
    (relu): ReLU ()
    (dropout): Dropout (p = 0.1)
  )
  (linear): Linear (5184 -> 2)
)
Starting training
[0/25][1/11802] Training Loss: 0.714147
[0/25][2/11802] Training Loss: 0.805009
[0/25][3/11802] Training Loss: 0.730669
[0/25][4/11802] Training Loss: 0.712089
[0/25][5/11802] Training Loss: 0.665622
[0/25][6/11802] Training Loss: 0.679453
[0/25][7/11802] Training Loss: 0.761126
…
