…
Experiment is live on comet.ml https://www.comet.ml/sedab/general/eac04e0fcfaf48b2b8ca8847a26a75d3

Random Seed:  3985
Loading from: TCGA-LUAD
number of samples: 23936
Loading from: TCGA-LUSC
number of samples: 27844
Loading from: ST_Normal_Lung
number of samples: 7976
Finished loading train dataset: 59756 samples
Loading from: TCGA-LUAD
number of samples: 8468
Loading from: TCGA-LUSC
number of samples: 6326
Loading from: ST_Normal_Lung
number of samples: 1583
Finished loading valid dataset: 16377 samples
Class encoding:
{'TCGA-LUAD': 1, 'ST_Normal_Lung': 0, 'TCGA-LUSC': 2}
Initialization method not found, defaulting to normal
cancer_CNN (
  (conv1): BasicConv2d (
    (conv): Conv2d(3, 16, kernel_size=(5, 5), stride=(2, 2), padding=(1, 1))
    (bn): BatchNorm2d(16, eps=0.001, momentum=0.1, affine=True)
    (relu): ReLU ()
    (dropout): Dropout (p = 0.1)
  )
  (conv2): BasicConv2d (
    (conv): Conv2d(16, 32, kernel_size=(3, 3), stride=(1, 1))
    (bn): BatchNorm2d(32, eps=0.001, momentum=0.1, affine=True)
    (relu): ReLU ()
    (dropout): Dropout (p = 0.1)
  )
  (conv3): BasicConv2d (
    (conv): Conv2d(32, 64, kernel_size=(3, 3), stride=(1, 1), padding=(1, 1))
    (bn): BatchNorm2d(64, eps=0.001, momentum=0.1, affine=True)
    (relu): ReLU ()
    (dropout): Dropout (p = 0.1)
  )
  (conv4): BasicConv2d (
    (conv): Conv2d(64, 64, kernel_size=(3, 3), stride=(1, 1), padding=(1, 1))
    (bn): BatchNorm2d(64, eps=0.001, momentum=0.1, affine=True)
    (relu): ReLU ()
    (dropout): Dropout (p = 0.1)
  )
  (conv5): BasicConv2d (
    (conv): Conv2d(64, 128, kernel_size=(3, 3), stride=(1, 1), padding=(1, 1))
    (bn): BatchNorm2d(128, eps=0.001, momentum=0.1, affine=True)
    (relu): ReLU ()
    (dropout): Dropout (p = 0.1)
  )
  (conv6): BasicConv2d (
    (conv): Conv2d(128, 64, kernel_size=(3, 3), stride=(1, 1), padding=(1, 1))
    (bn): BatchNorm2d(64, eps=0.001, momentum=0.1, affine=True)
    (relu): ReLU ()
    (dropout): Dropout (p = 0.1)
  )
  (linear): Linear (5184 -> 3)
)
No early stopping implemented
Starting training
1545585523.6808717
[0/25][1/1868] Training Loss: 1.098810
[0/25][2/1868] Training Loss: 1.155794
[0/25][3/1868] Training Loss: 1.121163
[0/25][4/1868] Training Loss: 1.179544
[0/25][5/1868] Training Loss: 1.193988
[0/25][6/1868] Training Loss: 1.109027
…
