…
number of samples: 5032
Loading from: TCGA-LUSC
number of samples: 23344
Loading from: TCGA-KICH
number of samples: 10832
Loading from: TCGA-BRCA
number of samples: 48496
Loading from: TCGA-KIRC
number of samples: 30074
Loading from: ST_Normal_Kidney
number of samples: 40652
Finished loading valid dataset: 198103 samples
Class encoding:
{'ST_Normal_Lung': 2, 'ST_Normal_Kidney': 1, 'TCGA-LUAD': 7, 'TCGA-LUSC': 8, 'TCGA-KIRP': 6, 'TCGA-BRCA': 3, 'TCGA-KIRC': 5, 'ST_Normal_Breast': 0, 'TCGA-KICH': 4}
Initialization method not found, defaulting to normal
cancer_CNN (
  (conv1): BasicConv2d (
    (conv): Conv2d(3, 16, kernel_size=(5, 5), stride=(2, 2), padding=(1, 1))
    (bn): BatchNorm2d(16, eps=0.001, momentum=0.1, affine=True)
    (relu): ReLU ()
    (dropout): Dropout (p = 0.1)
  )
  (conv2): BasicConv2d (
    (conv): Conv2d(16, 32, kernel_size=(3, 3), stride=(1, 1))
    (bn): BatchNorm2d(32, eps=0.001, momentum=0.1, affine=True)
    (relu): ReLU ()
    (dropout): Dropout (p = 0.1)
  )
  (conv3): BasicConv2d (
    (conv): Conv2d(32, 64, kernel_size=(3, 3), stride=(1, 1), padding=(1, 1))
    (bn): BatchNorm2d(64, eps=0.001, momentum=0.1, affine=True)
    (relu): ReLU ()
    (dropout): Dropout (p = 0.1)
  )
  (conv4): BasicConv2d (
    (conv): Conv2d(64, 64, kernel_size=(3, 3), stride=(1, 1), padding=(1, 1))
    (bn): BatchNorm2d(64, eps=0.001, momentum=0.1, affine=True)
    (relu): ReLU ()
    (dropout): Dropout (p = 0.1)
  )
  (conv5): BasicConv2d (
    (conv): Conv2d(64, 128, kernel_size=(3, 3), stride=(1, 1), padding=(1, 1))
    (bn): BatchNorm2d(128, eps=0.001, momentum=0.1, affine=True)
    (relu): ReLU ()
    (dropout): Dropout (p = 0.1)
  )
  (conv6): BasicConv2d (
    (conv): Conv2d(128, 64, kernel_size=(3, 3), stride=(1, 1), padding=(1, 1))
    (bn): BatchNorm2d(64, eps=0.001, momentum=0.1, affine=True)
    (relu): ReLU ()
    (dropout): Dropout (p = 0.1)
  )
  (linear): Linear (5184 -> 9)
)
No early stopping implemented
Starting training
[0/25][1/25577] Training Loss: 2.219043
[0/25][2/25577] Training Loss: 2.193280
[0/25][3/25577] Training Loss: 2.303023
[0/25][4/25577] Training Loss: 2.280020
[0/25][5/25577] Training Loss: 2.241813
[0/25][6/25577] Training Loss: 2.208574
…
