…
Random Seed:  7257
Loading from: Solid_Tissue_Normal
number of samples: 66724
Loading from: TCGA-LUSC
number of samples: 218260
Loading from: TCGA-LUAD
number of samples: 176839
Finished loading train dataset: 461823 samples
Loading from: Solid_Tissue_Normal
number of samples: 16700
Loading from: TCGA-LUSC
number of samples: 46687
Loading from: TCGA-LUAD
number of samples: 42485
Finished loading valid dataset: 105872 samples
Class encoding:
{'TCGA-LUAD': 1, 'TCGA-LUSC': 2, 'Solid_Tissue_Normal': 0}
Initialization method not found, defaulting to normal
cancer_CNN (
  (conv1): BasicConv2d (
    (conv): Conv2d(3, 16, kernel_size=(5, 5), stride=(2, 2), padding=(1, 1))
    (bn): BatchNorm2d(16, eps=0.001, momentum=0.1, affine=True)
    (relu): ReLU ()
    (dropout): Dropout (p = 0.1)
  )
  (conv2): BasicConv2d (
    (conv): Conv2d(16, 32, kernel_size=(3, 3), stride=(1, 1))
    (bn): BatchNorm2d(32, eps=0.001, momentum=0.1, affine=True)
    (relu): ReLU ()
    (dropout): Dropout (p = 0.1)
  )
  (conv3): BasicConv2d (
    (conv): Conv2d(32, 64, kernel_size=(3, 3), stride=(1, 1), padding=(1, 1))
    (bn): BatchNorm2d(64, eps=0.001, momentum=0.1, affine=True)
    (relu): ReLU ()
    (dropout): Dropout (p = 0.1)
  )
  (conv4): BasicConv2d (
    (conv): Conv2d(64, 64, kernel_size=(3, 3), stride=(1, 1), padding=(1, 1))
    (bn): BatchNorm2d(64, eps=0.001, momentum=0.1, affine=True)
    (relu): ReLU ()
    (dropout): Dropout (p = 0.1)
  )
  (conv5): BasicConv2d (
    (conv): Conv2d(64, 128, kernel_size=(3, 3), stride=(1, 1), padding=(1, 1))
    (bn): BatchNorm2d(128, eps=0.001, momentum=0.1, affine=True)
    (relu): ReLU ()
    (dropout): Dropout (p = 0.1)
  )
  (conv6): BasicConv2d (
    (conv): Conv2d(128, 64, kernel_size=(3, 3), stride=(1, 1), padding=(1, 1))
    (bn): BatchNorm2d(64, eps=0.001, momentum=0.1, affine=True)
    (relu): ReLU ()
    (dropout): Dropout (p = 0.1)
  )
  (linear): Linear (5184 -> 3)
)
No early stopping implemented
Starting training
[0/25][1/14432] Training Loss: 1.100607
[0/25][2/14432] Training Loss: 1.197234
[0/25][3/14432] Training Loss: 1.150393
[0/25][4/14432] Training Loss: 1.088577
[0/25][5/14432] Training Loss: 1.149935
[0/25][6/14432] Training Loss: 1.048099
…
